libtorch/TorchProject2/SampleNet.pt (torch, 842595 bytes, 20 tensors)

weight f4 [400]
1.0 3.5694375 3.4513476 3.9715953 0.06098151 1.406471 1.20028 0.59791565
-0.024425995 1.0136874 0.9773009 -0.02634152 0.052309707 1.0959857 1.0966685 0.31440726
0.060815487 0.8754255 0.9841689 0.10367705 -0.017763311 1.042192 0.89990824 0.021807786
0.013451445 0.700912 0.9901812 0.023429677 -0.0068850373 0.7230602 0.8030056 0.041400034
0.015835479 1.0234687 0.88301235 0.060569003 -0.04490647 0.594263 0.66634643 0.07083847
0.055753462 0.4887228 0.75087273 0.043216225 0.026231848 0.7820768 0.75556356 0.039532613
0.040193405 0.5519863 0.45522535 0.026985666 -0.054048974 -0.020570187 0.30734953 0.032046556
-0.035216045 0.07325449 0.10029999 -0.020129856 0.01068491 0.16920577 0.24788617 -0.0608123
-0.02989283 0.44474965 0.27500054 -0.028955767 -0.03401695 0.49072608 0.30381712 -0.04560985
-0.054606017 0.15811376 0.4190503 -0.02877955 0.010253507 0.08325377 0.26626563 -0.04407407
-0.027502237 0.6241382 0.26086026 0.007927173 0.0015814741 -0.036852095 0.01095644 0.072053544
-0.032241166 0.084566295 -0.024044752 0.01494659 0.00087340525 0.29995245 0.35815793 -0.016682068
0.021755634 0.16201659 0.043255325 0.05366379 -0.04334772 -0.03894219 0.09128647 -0.06975475
-0.03085492 0.13806169 0.30864868 0.021027537 0.018286131 0.12418432 -0.05377359 -0.041848592
0.030288998 0.1781672 -0.014491723 -0.04929422 0.035430223 -0.077356845 0.026904916 -0.059217997
0.055966765 -0.039495703 -0.078275025 -0.047605358 -0.0076886895 -0.0745123 0.03511969 -0.06427771
-0.024315586 0.0020076463 0.004090363 -0.008120277 -0.03443131 0.03765734 0.00036559964 -0.024892155
0.055960465 -0.059230357 0.1669138 -0.053792395 -0.083582595 -0.07309352 0.053839874 0.004084371
0.04553982 -0.023215953 -0.056222007 -0.07288608 -0.030347288 -0.08224488 -0.03343153 -0.008017426
0.04303072 0.03474948 0.012537166 0.013539391 0.023607075 -0.045526307 -0.010729074 -0.07106178
-0.024115749 -0.066875435 0.013537477 -0.07604585 -0.037093062 -0.0052773557 0.016509479 -0.03164113
0.0005684031 -0.021584362 -0.05972996 0.0055884975 0.002197622 0.035166945 0.022315575 0.0016397787
-0.0045096423 -0.03120016 0.04801086 -0.010141026 -0.0013517863 -0.012800667 0.031539384 -0.039161414
0.039971974 0.018414056 0.021537682 -0.0054246592 -0.036725834 -0.041904535 -0.0016148761 0.036674313
0.0030269339 -0.007996013 0.000106465115 -0.03861824 -0.0030537178 -0.011918329 0.0072024376 0.0059145154
0.00699063 0.051818926 -0.024596348 -0.0016209151 0.21860576 0.017502703 0.023552308 0.005344196
0.007117237 0.0792628 -0.0027609912 0.039918814 0.027254473 0.015907649 -0.043358713 0.004893232
0.0484957 0.13145426 0.028359804 0.023129527 -0.013231364 -0.031298164 -0.030946286 0.030680263
0.0014545145 -0.022477092 -0.00095311936 0.018058138 -0.0020442423 0.011073773 -0.020258788 -0.023889668
0.0009832217 -0.060683385 0.012898209 -0.0004990142 0.016170751 0.0029383418 0.029187394 -0.024797743
-0.016747145 0.009202583 0.0045052636 -0.029163323 -0.0050224983 0.034260813 -0.046430156 -0.026612593
-0.031363405 -0.04157709 -0.020849938 0.0044294377 0.012139051 -0.012567024 0.0012391629 -0.0073028654
00000000: 0000 803f aa71 6440 e1e2 5c40 9e2e 7e40
00000010: bfc7 793d 3e07 b43f c6a2 993f 0011 193f
00000020: 0619 c8bc 82c0 813f 6430 7a3f 2cca d7bc
00000030: b442 563d 4249 8c3f a25f 8c3f fdf9 a03e
00000040: a919 793d e31b 603f 7ef2 7b3f a254 d43d
00000050: 5d84 91bc 8c66 853f 6360 663f 3ea6 b23c
00000060: 7363 5c3c f86e 333f 847c 7d3f 98ef bf3c
00000070: e19b e1bb 791a 393f c691 4d3f 1593 293d
00000080: 68b9 813c 0601 833f 190d 623f 3417 783d
00000090: d9ef 37bd 9f21 183f ae95 2a3f c213 913d
000000a0: be5d 643d e039 fa3e 3239 403f 7f03 313d
000000b0: 2ce4 d63c 2f36 483f 9d6c 413f f3ec 213d
000000c0: d7a1 243d f94e 0d3f 4c13 e93e 0b11 dd3c
000000d0: 7562 5dbd cf82 a8bc eb5c 9d3e 4043 033d
000000e0: b33e 10bd 7306 963d 156a cd3d 5ee7 a4bc
000000f0: c30f 2f3c 4744 2d3e dfd5 7d3e 5116 79bd
00000100: cfe1 f4bc 3ab6 e33e dfcc 8c3e a534 edbc
00000110: 5b55 0bbd 7340 fb3e eb8d 9b3e 65d1 3abd
00000120: 8faa 5fbd 93e8 213e c38d d63e 17c3 ebbc
00000130: 53fe 273c f480 aa3d f853 883e 0387 34bd
00000140: 5f4c e1bc 85c7 1f3f 7a8f 853e f9e0 013c
00000150: 7749 cf3a 39f2 16bd a482 333c cf90 933d
00000160: 500f 04bd 1831 ad3d 80f9 c4bc 8be2 743c
00000170: 3cf5 643a 5e93 993e 7a60 b73e d5a8 88bc
00000180: df38 b23c ade7 253e 7f2c 313d 90ce 5b3d
00000190: 618d 31bd d981 1fbd 67f4 ba3d 94db 8ebd
000001a0: 75c3 fcbc 0b60 0d3e 3307 9e3e f141 ac3c
000001b0: cccc 953c 5954 fe3d b241 5cbd 6e69 2bbd
000001c0: a220 f83c 7671 363e b16e 6dbc bce8 49bd
000001d0: 481f 113d 446d 9ebd b367 dc3c 928e 72bd
000001e0: 683d 653d 3fc6 21bd a84e a0bd d6fd 42bd
000001f0: 67f1 fbbb e899 98bd aad9 0f3d 08a4 83bd
00000200: 7b31 c7bc b792 033b 7408 863b e90a 05bc
00000210: d807 0dbd 953e 1a3d f4ad bf39 a2ea cbbc
00000220: cd36 653d 889b 72bd 74eb 2a3e 6a55 5cbd
00000230: 5a2d abbd 0eb2 95bd 3387 5c3d 30d6 853b
00000240: f687 3a3d 622f bebc 0c49 66bd 4c45 95bd
00000250: e09a f8bc 0170 a8bd 80ef 08bd 865b 03bc
00000260: fb40 303d 7955 0e3d af68 4d3c 52d4 5d3c
00000270: a063 c13c cb79 3abd ffc8 2fbc d788 91bd
00000280: 648e c5bc fdf5 88bd 4bcc 5d3c edbd 9bbd
00000290: e5ee 17bd abed acbb e33e 873c 219a 01bd
000002a0: e300 153a b0d1 b0bc 67a7 74bd b71f b73b
000002b0: fb05 103b 370b 103d 27cf b63c d8ed d63a
000002c0: 9fc5 93bb 7a97 ffbc 09a7 443d 8c26 26bc
000002d0: 6c2e b1ba e4b9 51bc 712f 013d b867 20bd
000002e0: a7b9 233d 13d9 963c cb6f b03c 57c1 b1bb
000002f0: d46d 16bd 17a4 2bbd 40aa d3ba ce37 163d
00000300: 865f 463b b601 03bc 0646 df38 292e 1ebd
00000310: e220 48bb 1845 43bc 6d02 ec3b 8dce c13b
00000320: a811 e53b 1540 543d 487e c9bc e374 d4ba
00000330: 30da 5f3e d461 8f3c c5f0 c03c 5e1e af3b
00000340: b637 e93b 8954 a23d bff1 34bb e981 233d
00000350: c644 df3c c250 823c e898 31bd 6857 a03b
00000360: 6da3 463d f29b 063e d252 e83c 227a bd3c
00000370: 5dc8 58bc 8132 00bd 1183 fdbc 2d55 fb3c
00000380: 68a5 be3a e121 b8bc c2da 79ba a9ee 933c
00000390: b2f8 05bb c56e 353c c2f5 a5bc 44b4 c3bc
000003a0: 72df 803a 248f 78bd 0253 533c 47d0 02ba
000003b0: 8678 843c 3291 403b 671a ef3c a324 cbbc
000003c0: 4f31 89bc 6ec6 163c e4a0 933b ece7 eebc
000003d0: c593 a4bb 1155 0c3d 8c2d 3ebd a702 dabc
000003e0: ea76 00bd bd4c 2abd 7dcd aabc d124 913b
000003f0: dfe2 463c ebe5 4dbc 686b a23a e04c efbb

bias f4 [400]
1.2270896 0.14386265 -0.236479 -0.11096236 0.021580726 0.0140603045 0.23548073 0.21959312
-0.04401314 -0.21408807 -0.27652648 0.020584244 -0.027714562 0.13198297 -0.20729044 -0.1669861
0.0057401806 0.25246945 -0.19778308 0.18204448 0.08810773 0.39146918 -0.115277894 0.026620993
0.023568522 0.39915368 -0.2385118 0.03792738 -0.023885993 0.08762758 -0.1452877 -0.0073205046
0.020750117 0.27328667 -0.381144 -0.006759227 -0.046242118 0.1709144 -0.16433977 0.0144941965
0.035543874 0.13008367 -0.38623953 0.11821507 0.03504337 0.19368634 -0.29300618 -0.031798095
0.1333834 0.18707837 -0.139837 0.04313771 -0.0019347467 0.055415228 -0.1584284 0.012066239
-0.010877426 0.061300695 -0.20209794 0.050638855 0.050866686 0.02953282 -0.21749938 0.007867815
0.10643477 -0.06354604 -0.37550756 0.0355144 -0.031132484 0.2429862 -0.18878798 0.036669284
-0.015011399 0.032431263 -0.23261282 -0.012163091 -0.024816802 0.05543674 -0.24739495 -0.036698174
-0.014855601 0.2272449 -0.32474035 0.046005458 0.19624369 0.057872307 -0.007919805 0.03020202
0.058892 -0.0690708 0.023254815 0.04471913 -0.015244174 0.021305896 -0.55467427 -0.051474378
-0.055013355 0.18495788 -0.09814956 -0.010806602 -0.011543972 -0.018922646 -0.0723866 -0.04342285
0.00050537207 0.07999641 -0.24579544 -0.018519493 -0.11164046 0.027835669 0.027844802 -0.02870887
-0.0004581699 0.1781245 -0.00037378483 -0.03780227 0.015012483 0.0034150972 0.019649614 -0.012277066
0.028522054 -0.005240209 0.031472888 0.06507696 0.0030027775 0.0029987483 -0.103705555 0.040569864
0.38642603 -0.049206354 0.25972188 -0.032082006 -0.009344473 -0.01169087 -0.036661305 -0.011886312
0.039923202 -0.037244916 -0.09166778 -0.03851409 -0.054274086 -0.054749105 -0.0037512565 0.23106329
0.015910769 -0.03811994 -0.002749373 -0.009187705 -0.04695766 0.030285636 0.027605232 0.04200856
-0.07819699 -0.34170938 -0.048626132 -0.049650677 -0.045617066 -0.07219507 -0.06508352 -0.013464588
-0.06866393 0.010933407 -0.04703271 -0.019574203 -0.012688562 -0.040005766 -0.03758644 -0.06068582
0.0059673656 0.035905942 0.024581868 -0.041196708 -0.055664435 -0.032100547 -0.009533549 0.1492782
-0.031428214 0.078959495 -0.048246983 -0.022993091 -0.031347457 -0.061395008 -0.020385731 -0.024824992
-0.07233305 -0.034590308 -0.042873967 -0.043285817 0.032095186 -0.0070834556 0.013768052 -0.06954792
-0.029770613 -0.0071299504 -0.036057662 0.035166338 -0.044122685 -0.0151624065 -0.093518466 -0.01025036
0.04493825 -0.083209395 -0.09811324 -0.054352235 0.06730373 -0.031987403 -0.028864486 0.059853707
-0.019267417 0.15962245 0.033827893 -0.032460183 0.053843964 0.069395006 0.08416032 -0.015460201
0.14365345 0.0066734096 -0.058107335 0.14006342 0.033574518 0.015706459 -0.025885982 -0.014546517
-0.04765727 0.01851118 -0.027533768 0.22919542 -0.03210491 0.05720593 -0.032248933 0.015317616
0.016712017 -0.021838257 -0.032075915 -0.0011942006 0.28374052 -0.017816177 0.012899964 0.04650253
0.004429065 0.017009698 0.21704504 -0.008758606 0.026244385 -0.18267715 0.06604289 0.0038707347
0.009838543 -0.05808142 0.32389078 -0.019175231 -0.010835743 0.09442631 0.007350315 0.0065198014
00000000: 4611 9d3f bb50 133e 8d27 72be 3c40 e3bd
00000010: 10ca b03c 315d 663c dc21 713e 05dd 603e
00000020: 1f47 34bd e739 5bbe e194 8dbe 4aa0 a83c
00000030: a609 e3bc 8b26 073e f243 54be 67fe 2abe
00000040: 2018 bc3b ad43 813e a687 4abe de69 3a3e
00000050: d371 b43d a66e c83e d116 ecbd 4514 da3c
00000060: c612 c13c df5d cc3e 703c 74be be59 1b3d
00000070: 8fac c3bc 1776 b33d 4dc6 14be d8e0 efbb
00000080: 26fc a93c 3bec 8b3e 4e25 c3be 817c ddbb
00000090: 6068 3dbd 2f04 2f3e af48 28be 1179 6d3c
000000a0: 7496 113d a734 053e 30c1 c5be be1a f23d
000000b0: a389 0f3d b655 463e e804 96be b83e 02bd
000000c0: a895 083e 7991 3f3e 6e31 0fbe 2bb1 303d
000000d0: 5497 fdba 14fb 623d 0e3b 22be 79b1 453c
000000e0: 3b37 32bc 7016 7b3d c3f2 4ebe b06a 4f3d
000000f0: 9659 503d d0ee f13c 28b8 5ebe 02e8 003c
00000100: 79fa d93d 6d24 82bd 8742 c0be 8c77 113d
00000110: 8d09 ffbc 60d1 783e a351 41be 8832 163d
00000120: 5ff2 75bc a5d6 043d 0e32 6ebe b447 47bc
00000130: 9b4c cbbc a311 633d 1a55 7dbe d350 16bd
00000140: e864 73bc e3b2 683e 5e44 a6be 3870 3c3d
00000150: 1bf4 483e 830b 6d3d 12c2 01bc 3a6a f73c
00000160: bd38 713d fe74 8dbd e280 be3c 682b 373d
00000170: b3c2 79bc b489 ae3c 22ff 0dbf ccd6 52bd
00000180: af55 61bd 9965 3d3e a302 c9bd 2d0e 31bc
00000190: ee22 3dbc aa03 9bbc 6d3f 94bd 29dc 31bd
000001a0: f27a 043a 28d5 a33d cdb1 7bbe 31b6 97bc
000001b0: c1a3 e4bd a107 e43c c81a e43c dd2e ebbc
000001c0: 8636 f0b9 4566 363e 8df8 c3b9 8ed6 1abd
000001d0: ebf6 753c d3cf 5f3b 3af8 a03c bf25 49bc
000001e0: 15a7 e93c 0fb6 abbb b7e9 003d 1247 853d
000001f0: 3fca 443b a686 443b 9463 d4bd 962c 263d
00000200: a2d9 c53e 9a8c 49bd 44fa 843e 6c68 03bd
00000210: 8f19 19bc 108b 3fbc 2a2a 16bd cebe 42bc
00000220: 8386 233d 208e 18bd 51bc bbbd f3c0 1dbd
00000230: 814e 5ebd 9940 60bd a4d7 75bb db9b 6c3e
00000240: 4d57 823c a723 1cbd d32e 34bb 0788 16bc
00000250: ad56 40bd 9519 f83c 5e24 e23c 2b11 2c3d
00000260: be25 a0bd 88f4 aebe 322c 47bd 825e 4bbd
00000270: f6d8 3abd 02db 93bd 824a 85bd 939a 5cbc
00000280: ad9f 8cbd 0822 333c 5fa5 40bd 145a a0bc
00000290: b0e3 4fbc 16dd 23bd 3df4 19bd b291 78bd
000002a0: e489 c33b 1c12 133d ea5f c93c e1bd 28bd
000002b0: 6400 64bd dd7b 03bd 9a32 1cbc 62dc 183e
000002c0: dfba 00bd 84b5 a13d a19e 45bd 025c bcbc
000002d0: 3166 00bd 5579 7bbd faff a6bc c85d cbbc
000002e0: 5a23 94bd 91ae 0dbd 9d9c 2fbd 784c 31bd
000002f0: 3e76 033d 551c e8bb 6593 613c 246f 8ebd
00000300: 80e1 f3bc 5ca2 e9bb 33b1 13bd 940a 103d
00000310: fdb9 34bd be6b 78bc 9c86 bfbd 20f1 27bc
00000320: 2c11 383d b069 aabd 98ef c8bd 73a0 5ebd
00000330: 8ad6 893d 3905 03bd 3775 ecbc 2929 753d
00000340: b4d6 9dbc 1174 233e 1e8f 0a3d f8f4 04bd
00000350: 7d8b 5c3d f81e 8e3d 3f5c ac3d c84c 7dbc
00000360: e419 133e 9eac da3b f501 6ebd c96c 0f3e
00000370: 6f85 093d d5aa 803c d70e d4bc 8454 6ebc
00000380: 4534 43bd c2a4 973c 7f8e e1bc 34b2 6a3e
00000390: 7080 03bd c450 6a3d 7517 04bd bdf6 7a3c
000003a0: a4e7 883c 25e6 b2bc 0962 03bd b986 9cba
000003b0: 7046 913e 3bf3 91bc 5f5a 533c 7079 3e3d
000003c0: b121 913b ec57 8b3c 0e41 5e3e 4280 0fbc
000003d0: 77fe d63c b80f 3bbe 7f41 873d 27ac 7d3b
000003e0: d731 213c c8e6 6dbd 03d5 a53e 6015 9dbc
000003f0: 6688 31bc 9562 c13d e9da f03b 0fa4 d53b

running_mean f4 [400]
0.0 4.0840955 -4.124535 -0.12537527 0.21910311 4.25882 -3.9437284 -0.014307717
-0.025956016 4.298111 -3.818745 0.09895157 0.10316406 4.2829494 -3.8902802 -0.010543171
0.11677649 4.3761754 -3.7712305 0.08571901 0.31958312 4.563426 -3.607012 0.27433378
0.334425 4.5237927 -3.5001843 0.33308592 0.32724082 4.5185246 -3.685025 0.28795964
0.51968527 4.661302 -3.5543058 0.27041057 0.5497922 4.7974 -3.5369735 0.47984886
0.63563544 4.7784266 -3.4516234 0.54428864 0.4074937 4.7632465 -3.5608878 0.5989294
0.48150578 4.6954775 -3.5721831 0.37062642 0.47583398 4.5927277 -3.4234004 0.5038802
0.4236265 4.5931864 -3.3963885 0.59596115 0.54778844 4.6182933 -3.4382186 0.49743134
0.63971496 4.777854 -3.2637293 0.50423247 0.5608255 4.655655 -3.551796 0.5762107
0.6312132 4.702859 -3.4439967 0.54827344 0.59190243 4.7273445 -3.3027394 0.6150047
0.3815003 4.662892 -3.464246 0.59781486 0.78086096 4.7675743 -3.4760005 0.23062503
0.82561237 4.9856353 -3.0913312 0.7148963 0.7529371 4.8861456 -3.1302383 0.8171743
0.9212158 4.988554 -3.1666923 0.57923186 0.8053487 4.956022 -3.0215402 0.9822222
0.6395985 4.97535 -3.3126438 0.7644369 0.8934212 4.969563 -3.2575028 0.61749434
0.6423601 4.900133 -3.338875 0.74114394 0.65942615 4.8980646 -3.2532756 0.6077114
0.68295306 4.9603014 -3.3068612 0.7201463 0.92175347 4.9702024 -3.20897 0.562043
0.76271445 4.987643 -3.218868 0.8653182 0.8175798 4.919716 -3.137629 0.8089591
0.83170116 5.016009 -3.2191164 0.7796129 0.5470407 4.959703 -3.4576058 0.80410886
0.41930246 4.784451 -3.5202599 0.5217042 0.58497614 4.8312 -3.506327 0.44286233
0.48485523 4.7545223 -3.408687 0.5345687 0.5160233 4.5943456 -3.4735124 0.45374078
0.70393103 4.600412 -3.4402256 0.40671554 0.82995623 4.869331 -3.1940334 0.6325539
0.8199045 4.9239593 -3.199554 0.77584356 0.75582284 5.034534 -3.2366843 0.7219021
0.82078695 5.034549 -3.1789417 0.774687 0.6914202 4.928463 -3.225013 0.7056277
0.7399334 5.0863395 -3.2971342 0.76570654 0.81206024 5.0821548 -3.0962632 0.7830862
0.8859076 5.1359606 -3.1385584 0.89764076 0.91262966 5.0846133 -3.0749965 0.85415095
0.91071355 5.229025 -2.9469502 0.9451375 0.6842994 5.0253973 -3.2410536 0.9300486
0.78767323 4.9336963 -3.3293223 0.57514966 0.81939495 4.978737 -3.1776128 0.8568411
0.5173126 4.962454 -3.2715473 0.7540925 0.7415554 4.862166 -3.324942 0.5603574
0.6115102 4.858056 -3.1962123 0.78653395 0.6681689 4.86688 -3.221146 0.65006644
0.86455417 5.0095663 -3.275657 0.6586254 1.0499127 5.2184696 -2.9528515 0.9052269
0.9807331 5.3298135 -3.1178591 0.9755906 0.6282164 5.043731 -3.375533 0.9913704
0.54167527 4.6670394 -3.405003 0.5137745 0.4217517 4.572095 -3.5383193 0.45615414
00000000: 0000 0000 e9b0 8240 31fc 83c0 6062 00be
00000010: 915c 603e 4148 8840 0c66 7cc0 ea6a 6abc
00000020: b6a1 d4bc 208a 8940 5166 74c0 1fa7 ca3d
00000030: ae47 d33d ec0d 8940 5afa 78c0 44bd 2cbc
00000040: 8328 ef3d a109 8c40 d75b 71c0 738d af3d
00000050: 66a0 a33e 9607 9240 49d9 66c0 7a75 8c3e
00000060: c139 ab3e e9c2 9040 0503 60c0 3d8a aa3e
00000070: 1c8c a73e c197 9040 73d7 6bc0 726f 933e
00000080: 180a 053f 6329 9540 bf79 63c0 4173 8a3e
00000090: 2ebf 0c3f 4d84 9940 c65d 62c0 c0ae f53e
000000a0: 01b9 223f dfe8 9840 66e7 5cc0 8056 0b3f
000000b0: 04a3 d03e 846c 9840 96e5 63c0 7053 193f
000000c0: ed87 f63e 5a41 9640 a69e 64c0 bfc2 bd3e
000000d0: 83a0 f33e a0f7 9240 fe18 5bc0 4bfe 003f
000000e0: 93e5 d83e 62fb 9240 6e5e 59c0 e990 183f
000000f0: dd3b 0c3f 0fc9 9340 c60b 5cc0 52af fe3e
00000100: 5cc4 233f 2ee4 9840 f1e0 50c0 6115 013f
00000110: 4392 0f3f 20fb 9440 a050 63c0 8b82 133f
00000120: 3097 213f d27d 9640 716a 5cc0 a65b 0c3f
00000130: eb86 173f 6846 9740 1560 53c0 f370 1d3f
00000140: 0254 c33e 6936 9540 35b6 5dc0 650a 193f
00000150: 81e6 473f f88f 9840 cb76 5ec0 f828 6c3e
00000160: 555b 533f 538a 9f40 5fd8 45c0 7203 373f
00000170: 7cc0 403f 4e5b 9c40 d355 48c0 5632 513f
00000180: ccd4 6b3f 3ca2 9f40 16ab 4ac0 8a48 143f
00000190: 552b 4e3f bb97 9e40 ea60 41c0 ea72 7b3f
000001a0: babc 233f 1136 9f40 5b02 54c0 23b2 433f
000001b0: 40b7 643f a906 9f40 ed7a 50c0 1c14 1e3f
000001c0: b671 243f e4cd 9c40 21b0 55c0 9cbb 3d3f
000001d0: 27d0 283f f2bc 9c40 ab35 50c0 f992 1b3f
000001e0: 03d6 2e3f caba 9e40 9da3 53c0 825b 383f
000001f0: 09f8 6b3f e60b 9f40 c45f 4dc0 0de2 0f3f
00000200: 4141 433f c59a 9f40 ef01 4ec0 7e85 5d3f
00000210: e94c 513f 506e 9d40 eace 48c0 f217 4f3f
00000220: 5eea 543f 2583 a040 0106 4ec0 b694 473f
00000230: dc0a 0c3f e3b5 9e40 6a49 5dc0 14da 4d3f
00000240: d0ae d63e 391a 9940 f04b 61c0 688e 053f
00000250: ffc0 153f 3199 9a40 a967 60c0 dabe e23e
00000260: f23e f83e 0c25 9840 ee27 5ac0 7fd9 083f
00000270: 1a1a 043f e104 9340 074e 5ec0 b650 e83e
00000280: d334 343f 9336 9340 a82c 5cc0 053d d03e
00000290: 0378 543f 8fd1 9b40 0b6b 4cc0 0def 213f
000002a0: 43e5 513f 1391 9d40 7ec5 4cc0 af9d 463f
000002b0: 9b7d 413f e71a a140 d625 4fc0 93ce 383f
000002c0: 181f 523f 071b a140 c873 4bc0 e351 463f
000002d0: ea00 313f f8b5 9d40 9d66 4ec0 04a4 343f
000002e0: 466c 3d3f 4bc3 a240 3f04 53c0 5805 443f
000002f0: 2ee3 4f3f 03a1 a240 2d29 46c0 5678 483f
00000300: d7ca 623f ca59 a440 24de 48c0 c9cb 653f
00000310: 19a2 693f 27b5 a240 becc 44c0 a3a9 5a3f
00000320: 8624 693f 2c54 a740 d59a 3cc0 88f4 713f
00000330: 3f2e 2f3f 0ed0 a040 6c6d 4fc0 aa17 6e3f
00000340: f4a4 493f d7e0 9d40 9e13 55c0 023d 133f
00000350: dec3 513f d051 9f40 025e 4bc0 f059 5b3f
00000360: 996e 043f 6ccc 9e40 0861 51c0 350c 413f
00000370: 93d6 3d3f dd96 9b40 dacb 54c0 9573 0f3f
00000380: ef8b 1c3f 3275 9b40 be8e 4cc0 4a5a 493f
00000390: 1e0d 2b3f 7bbd 9b40 4227 4ec0 c16a 263f
000003a0: 6c53 5d3f 5e4e a040 5da4 51c0 ad9b 283f
000003b0: 8a63 863f b4fd a640 85fb 3cc0 f3bc 673f
000003c0: 5311 7b3f d58d aa40 018b 47c0 4ec0 793f
000003d0: cad2 203f 3f66 a140 bc08 58c0 73ca 7d3f
000003e0: 3bab 0a3f 6358 9540 92eb 59c0 ba86 033f
000003f0: d7ef d73e 9a4e 9240 d373 62c0 098d e93e

running_var f4 [400]
6e-45 12.240618 12.914883 21.542336 20.424986 12.738687 11.314993 3.9314492
33.20104 28.21246 26.015095 21.572012 51.432587 46.48201 41.32491 33.168785
68.3013 64.682655 58.8935 51.62532 81.6419 79.41099 77.50715 71.22497
99.57703 95.387215 88.34843 82.29579 116.534134 108.34921 108.82626 99.22236
127.61637 124.007355 121.415 115.39861 140.08809 136.29514 134.45386 127.35275
160.02661 151.21425 143.76343 139.55904 174.75322 168.99716 166.0563 158.00035
191.53514 186.82977 181.69508 175.23444 203.32846 207.69487 196.07195 193.41689
216.89404 215.22394 209.53023 205.11557 229.3754 225.8681 220.82925 219.42169
237.02606 236.44025 232.611 230.21613 255.55206 254.05894 239.28082 236.47269
276.88202 270.35144 259.56683 255.5047 297.20227 291.09396 281.99814 275.80557
301.6788 301.7094 298.665 295.4979 330.08334 319.32846 311.2375 301.44547
345.04413 338.23068 330.93668 327.4977 349.86002 353.6668 341.46472 344.76465
367.09024 358.8811 352.9537 348.74338 385.2034 374.46896 372.42102 363.13922
394.83594 391.52463 388.4341 386.40616 405.02875 401.1715 396.07483 392.5216
410.5169 413.90265 404.5349 406.88086 427.06583 423.22815 416.92908 410.15308
450.0965 444.69635 433.3936 428.2587 464.72998 463.6404 451.4669 450.83655
480.36816 481.3529 469.88724 471.5371 498.66153 489.5348 492.12738 482.70685
518.31146 511.92957 500.03204 500.62534 570.14624 524.7009 562.77936 522.6894
563.8965 572.21484 566.95135 568.2527 575.5344 566.4327 575.066 564.05945
604.59485 586.4839 588.9723 576.2256 611.1033 602.66095 618.57874 602.5079
647.16797 630.97876 627.67017 610.0852 651.012 653.0443 646.2563 646.4585
683.915 663.77466 665.7939 649.3093 691.58844 681.7658 686.45056 681.98425
710.0469 695.39856 695.9497 687.89935 726.427 724.3396 712.1488 711.84106
751.2528 740.7177 739.44495 721.4727 770.6311 762.90936 756.76385 746.2931
789.385 788.8432 770.41034 767.0101 822.0494 826.133 794.69073 796.434
829.7488 839.074 816.3321 821.1749 830.50916 842.4976 815.9561 832.8645
848.334 852.74554 841.5342 832.8605 876.24976 871.03986 868.5194 855.92114
909.73083 884.3848 911.2072 876.5985 931.17584 924.4584 915.01715 905.82764
958.2177 952.20795 939.11676 932.9037 963.50397 968.04614 960.72534 950.411
1020.7712 1022.8784 966.2941 961.1473 1067.1837 1063.2582 1020.0756 1018.8545
1069.0441 1103.8604 1032.3386 1066.3955 1036.0769 1051.169 1025.6323 1051.2875
1060.6028 1048.0835 1048.094 1035.996 1090.361 1078.7397 1075.5781 1065.1931
00000000: 0400 0000 92d9 4341 5ca3 4e41 b456 ac41
00000010: 5f66 a341 a9d1 4b41 360a 3541 dd9c 7b40
00000020: ddcd 0442 1eb3 e141 ea1e d041 7b93 ac41
00000030: f8ba 4d42 94ed 3942 b54c 2542 d6ac 0442
00000040: 449a 8842 855d 8142 f292 6b42 5480 4e42
00000050: a748 a342 6dd2 9e42 a903 9b42 2f73 8e42
00000060: 7027 c742 41c6 be42 65b2 b042 7297 a442
00000070: 7a11 e942 ccb2 d842 0ca7 d942 d971 c642
00000080: 953b ff42 c403 f842 7bd4 f242 17cc e642
00000090: 8d16 0c43 8e4b 0843 3074 0643 9cb4 fe42
000000a0: d006 2043 d936 1743 70c3 0f43 1d8f 0b43
000000b0: d3c0 2e43 46ff 2843 6a0e 2643 1700 1e43
000000c0: ff88 3f43 6cd4 3a43 f1b1 3543 043c 2f43
000000d0: 1654 4b43 e3b1 4f43 6b12 4443 b96a 4143
000000e0: e0e4 5843 5439 5743 bd87 5143 961d 4d43
000000f0: 1a60 6543 3cde 6143 4ad4 5c43 f46b 5b43
00000100: ac06 6d43 b470 6c43 6a9c 6843 5437 6643
00000110: 548d 7f43 170f 7e43 e447 6f43 0279 6c43
00000120: e670 8a43 fc2c 8743 8ec8 8143 3481 7f43
00000130: e499 9443 078c 9143 c3ff 8c43 1de7 8943
00000140: e3d6 9643 ceda 9643 1f55 9543 bbbf 9343
00000150: ab0a a543 0baa 9f43 669e 9b43 05b9 9643
00000160: a685 ac43 871d a943 e577 a543 b5bf a343
00000170: 15ee ae43 5ad5 b043 7cbb aa43 e061 ac43
00000180: 8d8b b743 c870 b343 137a b043 275f ae43
00000190: 099a c043 073c bb43 e435 ba43 d291 b543
000001a0: 006b c543 27c3 c343 9137 c243 fd33 c143
000001b0: ae83 ca43 f495 c843 9409 c643 c442 c443
000001c0: 2a42 cd43 8af3 ce43 7844 ca43 c070 cb43
000001d0: 6d88 d543 349d d343 ec76 d043 9813 cd43
000001e0: 5a0c e143 2259 de43 61b2 d843 1d21 d643
000001f0: 705d e843 f9d1 e743 c3bb e143 146b e143
00000200: 202f f043 2cad f043 91f1 ea43 c0c4 eb43
00000210: ad54 f943 74c4 f443 4e10 f643 7a5a f143
00000220: ef93 0144 fcf6 ff43 1a04 fa43 0b50 fa43
00000230: 5c89 0e44 dc2c 0344 e1b1 0c44 1fac 0244
00000240: 60f9 0c44 c00d 0f44 e3bc 0d44 2c10 0e44
00000250: 34e2 0f44 b19b 0d44 39c4 0f44 ce03 0d44
00000260: 1226 1744 f89e 1244 3a3e 1344 700e 1044
00000270: 9cc6 1844 4daa 1644 0aa5 1a44 81a0 1644
00000280: c0ca 2144 a4be 1d44 e4ea 1c44 7485 1844
00000290: c5c0 2244 d642 2344 6790 2144 589d 2144
000002a0: 8ffa 2a44 94f1 2544 cf72 2644 cc53 2244
000002b0: a9e5 2c44 0371 2a44 d69c 2b44 fe7e 2a44
000002c0: 0083 3144 82d9 2d44 c8fc 2d44 8ff9 2b44
000002d0: 549b 3544 bc15 3544 8609 3244 d4f5 3144
000002e0: 2ed0 3b44 ef2d 3944 7adc 3844 415e 3444
000002f0: 64a8 4044 33ba 3e44 e330 3d44 c292 3a44
00000300: a458 4544 f735 4544 439a 4044 a5c0 3f44
00000310: 2983 4d44 8388 4e44 35ac 4644 c71b 4744
00000320: ec6f 4f44 bcc4 5144 4115 4c44 324b 4d44
00000330: 96a0 4f44 d99f 5244 31fd 4b44 5437 5044
00000340: 6015 5444 b72f 5544 3062 5244 1237 5044
00000350: fc0f 5b44 8dc2 5944 3e21 5944 f4fa 5544
00000360: c66e 6344 a118 5d44 43cd 6344 4e26 5b44
00000370: 41cb 6844 561d 6744 19c1 6444 f874 6244
00000380: ef8d 6f44 4f0d 6e44 79c7 6a44 d639 6944
00000390: 41e0 7044 f402 7244 6c2e 7044 4e9a 6d44
000003a0: 5b31 7f44 38b8 7f44 d392 7144 6d49 7044
000003b0: e165 8544 43e8 8444 d704 7f44 b0b6 7e44
000003c0: 69a1 8544 88fb 8944 d60a 8144 a84c 8544
000003d0: 7682 8144 6865 8344 3c34 8044 3369 8344
000003e0: 4a93 8444 ac02 8344 0203 8344 df7f 8144
000003f0: 8d4b 8844 acd7 8644 8072 8644 2e26 8544

weight f4 [300, 400]
-0.17490676 0.8707858 -0.3961388 -0.3786788 0.2092193 0.2840096 -0.29596338 0.23944555
-0.10838277 0.2833951 -0.3219419 0.10787466 -0.09607168 0.27599388 -0.17737724 -0.045939844
0.15567249 0.42616144 -0.03479367 -0.070257574 -0.04032014 0.7650848 0.14897756 0.14654359
0.09758332 0.30746445 0.06252844 0.18809105 -0.0074291765 0.32450277 -0.11712019 0.07224888
-0.16908215 0.337664 0.038701717 -0.03374265 0.08384631 0.18586612 -0.06819043 0.057255153
0.14460799 0.06722717 -0.31814048 0.07501576 0.15514188 0.13447112 -0.19654047 0.028796732
-0.16079712 -0.07119567 -0.3275533 0.0961856 -0.28652015 -0.32332063 -0.5314677 0.14867535
-0.12415771 -0.4746938 -0.47270146 0.0512836 -0.031038933 -0.3465791 -0.6577003 -0.12845619
-0.22951514 -0.30337495 -0.5061508 -0.049045958 -0.028759405 -0.1258472 -0.58471 0.006735343
-0.12545007 -0.3070167 -0.56730145 0.074587956 0.13222796 -0.443321 -0.45083216 -0.09798875
-0.19505787 -0.33051315 -0.53649503 -0.18763226 -0.24341683 -0.2670954 -0.57355523 0.1895391
-0.04680816 -0.3462209 -0.1581072 -0.07851016 -0.17891957 -0.69052285 -0.64619493 -0.1074766
-0.3343621 -0.6221489 -0.44197425 -0.25495422 0.08448002 -0.325936 -0.6858782 -0.0496768
0.17680418 -0.7074559 -0.7153844 -0.14640485 -0.073979616 -0.49262634 -0.055272166 0.10285342
-0.32374683 -0.3217312 -0.09722201 0.19667894 0.24273321 -0.49942058 0.0038523902 0.111372195
0.49235782 -0.30355898 -0.300057 -0.20080483 -0.089782834 0.19616199 -0.25838864 -0.23770942
-0.19998194 -0.07020015 -0.23057342 0.18327805 -0.25357932 -0.120559156 -0.0146024935 0.03151109
-0.14045049 -0.052919425 -0.45091942 0.29501885 -0.26132157 0.05544381 -0.049471233 -0.1301553
0.05377098 -0.0993736 0.35800236 -0.07721179 -0.073540986 -0.16926587 0.12661056 -0.1268355
-0.33862308 -0.10904131 0.09371621 0.0075690025 0.16148031 -0.23091373 0.022166464 -0.13489094
0.015565625 -0.1846233 -0.0051374254 -0.32705602 0.087451346 -0.32290888 -0.007816023 -0.06983033
-0.16408938 -0.14284343 0.11589967 0.2004227 0.0052599125 -0.1555728 -0.14249754 -0.15531684
0.08766721 0.10814192 0.22141455 -0.19669852 0.118503116 0.072626285 -0.045056682 0.14676496
0.011051739 0.05524079 -0.091677375 -0.049236387 -0.15024333 0.030862879 -0.19060574 -0.035092082
-0.084428184 0.0020302332 -0.18495515 0.06789767 -0.16850966 -0.05483625 0.063941695 0.15620084
-0.20645027 0.27325025 -0.043168455 -0.03847479 -0.23452991 -0.11767111 -0.21764939 -0.23518127
-0.115722224 -0.29005527 0.09802403 -0.10859709 -0.035971027 -0.047846004 -0.06646155 0.013092815
-0.328443 -0.2654813 0.21188411 -0.2829206 -0.29042566 -0.01679479 -0.19013241 0.06162095
-0.14033195 -0.09330923 -0.14394842 -0.27256233 -0.23005064 -0.26646498 -0.12554635 -0.094189495
0.11535793 -0.19457562 -0.29356173 -0.17894606 -0.2646355 0.13212936 -0.018514503 -0.14666526
0.19120939 0.26190802 -0.2965338 -0.004214099 -0.1998455 -0.07681769 0.36345825 -0.118286915
0.06475019 0.12568597 -0.26907054 -0.16114245 -0.21366747 0.14862397 0.13995486 -0.023343608
00000000: c21a 33be d1eb 5e3f b4d2 cabe 30e2 c1be
00000010: 963d 563e b569 913e 8388 97be 3731 753e
00000020: c9f7 ddbd 2a19 913e 92d5 a4be 64ed dc3d
00000030: 3bc1 c4bd 124f 8d3e 61a2 35be 6b2b 3cbd
00000040: 9c68 1f3e d531 da3e cf83 0ebd 34e3 8fbd
00000050: bb26 25bd 99dc 433f 938d 183e 860f 163e
00000060: c4d9 c73d fb6b 9d3e e90e 803d f19a 403e
00000070: 7370 f3bb 3a25 a63e b6dc efbd 39f7 933d
00000080: df23 2dbe 4ce2 ac3e b185 1e3d bc35 0abd
00000090: 9db7 ab3d b053 3e3e 6da7 8bbd 6184 6a3d
000000a0: 1e14 143e 66ae 893d 4fe3 a2be dda1 993d
000000b0: 83dd 1e3e ccb2 093e e841 49be 20e7 eb3c
000000c0: 00a8 24be 09cf 91bd 11b5 a7be f5fc c43d
000000d0: c5b2 92be 488a a5be 440e 08bf 5a3e 183e
000000e0: 6646 febd 110b f3be ed05 f2be c10e 523d
000000f0: 5c45 febc d172 b1be 0c5f 28bf 058a 03be
00000100: 0406 6bbe f653 9bbe 1993 01bf 6ae4 48bd
00000110: d898 ebbc 17de 00be 8eaf 15bf 27b4 dc3b
00000120: fc75 00be 4b31 9dbe ab3a 11bf 92c1 983d
00000130: c466 073e f8fa e2be 79d3 e6be 53ae c8bd
00000140: 40bd 47be 0539 a9be bd57 09bf ac22 40be
00000150: 4342 79be bac0 88be 84d4 12bf 8a16 423e
00000160: eab9 3fbd de43 b1be dbe6 21be efc9 a0bd
00000170: b136 37be 1bc6 30bf 086d 25bf b11c dcbd
00000180: 8231 abbe 2645 1fbf 734a e2be 5c89 82be
00000190: dc03 ad3d 15e1 a6be b795 2fbf e679 4bbd
000001a0: 280c 353e d41b 35bf 6f23 37bf 27eb 15be
000001b0: a082 97bd 8539 fcbe 1165 62bd d0a4 d23d
000001c0: 25c2 a5be f4b9 a4be 551c c7bd 3466 493e
000001d0: 0e8f 783e 0eb4 ffbe 6278 7c3b 1b17 e43d
000001e0: 5316 fc3e 156c 9bbe 12a1 99be c89f 4dbe
000001f0: 10e0 b7bd b0de 483e 844b 84be 196a 73be
00000200: 11c8 4cbe 19c5 8fbd 701b 6cbe 3ead 3b3e
00000210: 26d5 81be b8e7 f6bd 4c3f 6fbc c611 013d
00000220: 41d2 0fbe 0ac2 58bd e9de e6be b60c 973e
00000230: f1cb 85be 0c19 633d 59a2 4abd 6e47 05be
00000240: f63e 5c3d 6384 cbbd 164c b73e 3721 9ebd
00000250: a89c 96bd 0854 2dbe 33a6 013e 2ae1 01be
00000260: 0160 adbe 0d51 dfbd 49ee bf3d 6505 f83b
00000270: 185b 253e a674 6cbe 7296 b53c da20 0abe
00000280: f706 7f3c e40d 3dbe d957 a8bb e373 a7be
00000290: b119 b33d 5054 a5be c70e 00bc 3403 8fbd
000002a0: 0c07 28be 8c45 12be ce5c ed3d 9c3b 4d3e
000002b0: 585b ac3b 7a4e 1fbe e0ea 11be 610b 1fbe
000002c0: de8a b33d 8379 dd3d 7fba 623e 566b 49be
000002d0: c3b1 f23d 17bd 943d 5b8d 38bd 8e49 163e
000002e0: 5a12 353c 2b44 623d 59c1 bbbd 18ac 49bd
000002f0: 63d9 19be 26d4 fc3c 272e 43be b7bc 0fbd
00000300: afe8 acbd a90d 053b e264 3dbe ef0d 8b3d
00000310: cc8d 2cbe fa9b 60bd ddf3 823d 1df3 1f3e
00000320: b367 53be 75e7 8b3e 68d1 30bd be97 1dbd
00000330: 9c28 70be 8dfd f0bd 7bdf 5ebe 5cd3 70be
00000340: c6ff ecbd 2082 94be d3c0 c83d 2768 debd
00000350: 5b56 13bd 2cfa 43bd fe1c 88bd 3f83 563c
00000360: ae29 a8be 2aed 87be 26f8 583e f8da 90be
00000370: acb2 94be 3a95 89bc 12b2 42be 4066 7c3d
00000380: 2eb3 0fbe e918 bfbd 3767 13be 4a8d 8bbe
00000390: 6592 6bbe 196e 88be 398f 00be 6ce6 c0bd
000003a0: c740 ec3d d53e 47be b94d 96be a33d 37be
000003b0: 4e7e 87be eb4c 073e baab 97bc 6b2f 16be
000003c0: 65cc 433e cf18 863e 47d3 97be 6d16 8abb
000003d0: 4ca4 4cbe 9852 9dbd 3317 ba3e 6940 f2bd
000003e0: bf9b 843d d3b3 003e 9dc3 89be 8702 25be
000003f0: a5cb 5abe e230 183e 5450 0f3e 183b bfbc

bias f4 [300]
-0.157817 -0.029774593 -0.13250756 -0.118562035 0.22662027 -0.2143734 -0.15391524 0.4543997
-0.061648797 -0.0049714856 0.4193747 -0.2601987 -0.23430109 0.060477998 0.44630828 0.3443416
-0.09511563 0.3582413 0.23822692 -0.10693033 1.0805038 -0.28025484 0.6641885 -0.14626245
-0.26809284 1.3175579 -0.115782216 -0.5189671 -0.26031733 -0.2254029 0.3790962 -0.08613149
0.5657685 0.5606846 0.7004812 -0.10776219 -0.09039182 0.553714 -0.164453 1.0350027
0.26808906 1.0117373 -0.49870655 -0.58650225 0.6070799 -0.2702636 -0.21073623 0.12337064
0.2838836 -0.09099729 0.12689163 0.28409562 0.29006714 2.0567622 -0.2957326 0.8055115
-0.18842626 0.5568208 0.3505927 -0.14631377 -0.18076128 -0.22050767 0.15464987 0.40520877
0.5549206 -0.07127023 0.4226037 0.6039431 -0.2199984 0.31819862 0.17568545 -0.18557365
0.4749851 -0.115209155 0.05233221 0.59136564 -0.2789589 -0.053898506 0.22645941 0.40306973
0.52504253 2.2497575 0.40496767 0.19537884 0.5840325 0.9743143 1.3998309 0.8173276
-0.061719257 1.4994874 -0.29699567 0.6657054 0.5508002 -0.26349604 1.8369343 0.86184067
-0.08876498 0.31247514 3.1156168 -0.06797307 -0.3533446 -0.0138280215 -0.22002141 0.74271256
0.42262155 0.42962477 0.6292667 2.0280461 -0.10155081 -0.28427747 1.0332416 0.39031893
-0.10696986 0.6872619 -0.10229928 2.3408303 2.5687025 -0.07867411 -0.040054172 0.37870327
-0.1481825 0.049176946 -0.23135027 1.5812334 1.0620732 -0.32368243 0.6415971 -0.12970203
-0.14806944 -0.29898068 -0.078924485 0.25593644 -0.07439894 -0.09167703 0.3342757 -0.21900755
-0.06779519 0.2712746 0.19030136 -0.17151593 0.17896476 0.3291405 -0.15515202 0.39424732
0.20186166 0.16146246 0.6145464 0.45585203 0.12129856 0.10546944 -0.48893523 0.48728314
-0.19512144 -0.03773358 0.0022190323 -0.39877123 0.44807318 1.7425615 -0.16752487 0.2501266
-0.6903496 -0.3628843 0.8386982 -0.10899267 0.2171965 -0.16556366 0.23292127 1.0033656
0.7370769 1.0711156 2.201588 0.46261588 2.1563153 -0.4314023 -0.325685 0.5754452
-0.16313207 0.92291605 -0.28276676 0.60309494 1.0635437 0.16447844 0.47122517 0.07053041
0.5340894 -0.26115537 -0.019246895 0.2754311 -0.112059385 -0.23642297 0.6985258 -0.2545084
0.34947556 0.15001322 -0.2776407 0.8429297 0.36133242 -0.047711473 0.47066703 -0.330961
3.0761838 -0.110935465 0.31888345 -0.22709087 0.22339052 0.67749536 -0.13922751 -0.14951396
0.97380656 0.63450813 -0.021018382 0.5633307 0.63468444 1.5712082 -0.29375407 -0.20648976
-0.33794278 0.60273105 1.8561883 -0.07969478 -0.09186475 -0.21103004 0.63916063 0.0042198487
0.12633964 -0.7151648 -0.026231425 -0.022535894 0.03279263 0.49360913 -0.14356472 -0.03393192
-0.42017055 -0.2294987 0.6327033 -0.11726405 -0.0031842436 -0.46182266 -0.42350835 1.1907405
-0.20405956 -0.18822117 -0.12574543 0.082689576 -0.07035469 0.54757726 2.2264488 0.18811938
0.3521488 -0.37851912 -0.33243537 -0.18013546 -0.40844348 -0.25342944 -0.39404917 -0.041511614
00000000: c89a 21be d9e9 f3bc 10b0 07be a7d0 f2bd
00000010: 250f 683e b384 5bbe f59b 1dbe 14a7 e83e
00000020: 7383 7cbd d8e7 a2bb 48b8 d63e c438 85be
00000030: a0ec 6fbe c7b7 773d 8582 e43e 8b4d b03e
00000040: fccb c2bd 676b b73e c2f1 733e 4afe dabd
00000050: f34d 8a3f 907d 8fbe 4208 2a3f d3c5 15be
00000060: 7743 89be bda5 a83f 3a1f edbd 07db 04bf
00000070: 5048 85be 05d0 66be e618 c23e b565 b0bd
00000080: 34d6 103f 0789 0f3f bc52 333f 6cb2 dcbd
00000090: 591f b9bd 33c0 0d3f 5e66 28be f87a 843f
000000a0: f842 893e 9c80 813f 7756 ffbe 0325 16bf
000000b0: 9769 1b3f fe5f 8abe 3dcb 57be bfa9 fc3d
000000c0: 3159 913e ca5c babd e1ef 013e fb74 913e
000000d0: ae83 943e fea1 0340 436a 97be 0036 4e3f
000000e0: d0f2 40be cf8b 0e3f e380 b33e 47d3 15be
000000f0: 7c19 39be c3cc 61be 895c 1e3e 8677 cf3e
00000100: 470f 0e3f 20f6 91bd 835f d83e 049c 1a3f
00000110: 4347 61be eeea a23e e3e6 333e 0507 3ebe
00000120: 3f31 f33e c7f2 ebbd 4d5a 563d bd63 173f
00000130: b3d3 8ebe aec4 5cbd fae4 673e 285f ce3e
00000140: 3069 063f 07fc 0f40 ec57 cf3e 6411 483e
00000150: 2783 153f a96c 793f a92d b33f 623c 513f
00000160: 55cd 7cbd 34ef bf3f d10f 98be ab6b 2a3f
00000170: 3e01 0d3f f4e8 86be aa20 eb3f 97a1 5c3f
00000180: 6aca b5bd befc 9f3e 4466 4740 7735 8bbd
00000190: 95e9 b4be ed8e 62bc 4b4d 61be 6922 3e3f
000001a0: da61 d83e c7f7 db3e 9f17 213f 82cb 0140
000001b0: dff9 cfbd d18c 91be 4341 843f e2d7 c73e
000001c0: 0413 dbbd 65f0 2f3f 4982 d1bd 2ad0 1540
000001d0: 9f65 2440 e41f a1bd d80f 24bd 65e5 c13e
000001e0: 27bd 17be c46d 493d 16e7 6cbe db65 ca3f
000001f0: 04f2 873f b4b9 a5be b53f 243f 9cd0 04be
00000200: 849f 17be ff13 99be 29a3 a1bd 1a0a 833e
00000210: 795e 98bd 2bc1 bbbd 2f26 ab3e 8443 60be
00000220: 34d8 8abd 81e4 8a3e 5cde 423e dfa1 2fbe
00000230: 8a42 373e 1b85 a83e 2ce0 1ebe c9da c93e
00000240: d3b4 4e3e 6a56 253e ea52 1d3f 7065 e93e
00000250: 616b f83d 5d00 d83d b855 fabe 2d7d f93e
00000260: eacd 47be 878e 1abd 2f6d 113b be2b ccbe
00000270: d969 e53e 410c df3f a48b 2bbe 9810 803e
00000280: c0ba 30bf f9cb b9be edb4 563f 8d37 dfbd
00000290: c268 5e3e 8589 29be ea82 6e3e 496e 803f
000002a0: 12b1 3c3f 511a 893f d1e6 0c40 fddb ec3e
000002b0: 1201 0a40 c3e0 dcbe 2fc0 a6be 6050 133f
000002c0: 180c 27be 3a44 6c3f cec6 90be 6e64 1a3f
000002d0: 3322 883f 096d 283e 6d44 f13e 3f72 903d
000002e0: 15ba 083f 28b6 85be aaab 9dbc 4e05 8d3e
000002f0: 647f e5bd dd18 72be 96d2 323f ed4e 82be
00000300: 76ee b23e 119d 193e ec26 8ebe 3eca 573f
00000310: 9000 b93e 1b6d 43bd 45fb f03e b873 a9be
00000320: 32e0 4440 2232 e3bd b144 a33e 828a 68be
00000330: 7cc0 643e 5670 2d3f a891 0ebe 301a 19be
00000340: 634b 793f 206f 223f be2e acbc 7136 103f
00000350: ae7a 223f 5a1d c93f ef66 96be 0d72 53be
00000360: d606 adbe 954c 1a3f 9497 ed3f 0437 a3bd
00000370: 9623 bcbd 4218 58be 08a0 233f a846 8a3b
00000380: 2e5f 013e 0a15 37bf 49e3 d6bc 329d b8bc
00000390: 9151 063d 56ba fc3e a102 13be 32fc 0abd
000003a0: 9820 d7be b501 6bbe d8f8 213f 2228 f0bd
000003b0: beae 50bb 0574 ecbe 16d6 d8be 2f6a 983f
000003c0: fdf4 50be 0dbd 40be 69c3 00be 2759 a93d
000003d0: 1f16 90bd 062e 0c3f 237e 0e40 5ea2 403e
000003e0: d94c b43e 42cd c1be f834 aabe 6e75 38be
000003f0: 811f d1be 81c1 81be d0c0 c9be 1508 2abd

weight f4 [300]
0.5786835 0.7218876 0.8544421 0.88496226 0.9617798 0.58946717 0.32678455 0.23670328
1.3225571 0.05017743 0.44273967 0.7278803 0.516369 0.55233043 0.38530788 1.0139104
0.7484821 1.2524359 0.026164196 0.38800797 1.1850389 0.41933772 1.326794 0.39984488
-0.076137304 1.2298863 0.75331813 0.15769118 0.4142455 -0.0027758873 0.8855643 0.684841
0.5503551 1.1049793 1.2452079 0.8548948 0.26615512 1.1659467 0.90214735 1.2101991
1.377584 1.2056136 0.3368729 0.53330034 1.2804444 0.8728589 0.5172901 0.9405651
0.3739143 0.43448526 0.9963205 1.4853863 0.5226295 1.5938147 1.2293854 0.5597793
1.0427583 0.10037943 0.87364876 0.5307357 1.2299718 0.5782114 0.08922771 1.4992365
-0.001983015 -0.04167879 0.85506 1.4857017 0.6760567 1.3054631 0.72422576 0.15185797
1.0543686 0.87693465 0.63522214 1.0161284 0.37157813 0.67090017 0.62011594 1.4345092
0.9034251 1.9201841 0.9538019 0.3738424 1.018612 1.3254656 1.2571015 1.3202765
0.2084992 1.1391977 0.49449724 1.3008689 1.1228945 0.5716856 1.2998209 1.6056001
0.99417835 0.891155 1.5028864 0.28527275 0.89124995 1.1808766 0.38327202 1.2433058
0.93830526 0.29522213 1.1630051 1.5179107 0.0782822 0.7575903 0.61646277 1.0581123
0.10294152 1.0890745 0.8159108 1.4025795 1.8397528 0.9174043 0.99080414 0.8888384
0.071188726 0.80819345 0.41541103 1.0587276 0.76380056 0.11703982 0.7978896 0.39807856
0.817642 0.4644252 0.6930738 0.028604014 0.016971182 0.31444222 0.7193039 0.3979785
0.59990686 0.6925565 0.6259754 0.30150646 1.1101654 1.0116764 0.49160787 1.01045
0.2646763 0.3145762 -0.021043574 0.77691776 1.2527643 0.008837948 0.3211634 1.0150229
0.21073058 0.7744585 -0.028876958 0.46290943 1.2729878 1.3216734 0.60194564 1.0961219
0.3124611 0.35900134 1.0244882 0.47973904 0.13860951 0.04409917 0.5366478 1.0590518
0.962453 1.1568527 1.3228734 1.2770897 1.2580563 -0.020868575 0.2767893 1.1389731
0.09410628 0.9751351 0.9756106 0.74629426 0.34393767 0.84061503 0.11590747 0.017633388
1.1082829 0.5215227 0.6950688 0.72193515 0.05162486 0.63289064 1.3163719 0.77929956
0.3998637 1.2880609 0.11827092 0.950747 0.69552517 0.52389073 0.58999354 0.449941
1.9672637 0.7485917 0.7085219 0.38793197 0.7658903 1.5571889 0.54068685 0.32922742
1.0684516 1.4113208 1.5573941 0.84016114 0.013037684 1.1332033 0.45134085 0.6421147
0.6129146 0.7481284 1.2438232 0.68913496 0.43495032 0.8086301 0.82517534 0.5569586
1.160233 0.77813816 0.52178514 0.3067792 0.051568307 1.2296265 1.1494502 0.0017147802
0.59974927 0.7217111 0.76998776 0.2956665 0.57984066 0.40300772 0.5934325 1.3064561
0.2588421 0.8592246 0.67185116 0.25194183 0.48325238 1.4964796 1.277226 0.77797085
0.12942675 0.45398623 0.11374209 -0.020221476 0.7813841 0.7072996 1.5543928 1.1026165
00000000: 9a24 143f a0cd 383f b8bc 5a3f e38c 623f
00000010: 3337 763f 52e7 163f 4e50 a73e 5862 723e
00000020: 8d49 a93f d986 4d3d c6ae e23e 5d56 3a3f
00000030: c230 043f 8765 0d3f 1347 c53e d1c7 813f
00000040: 869c 3f3f d24f a03f 4c56 d63c fba8 c63e
00000050: 5baf 973f 6fb3 d63e 63d4 a93f 78b8 cc3e
00000060: e0ed 9bbd ea6c 9d3f 75d9 403f cc79 213e
00000070: fc17 d43e a9eb 35bb 58b4 623f bd51 2f3f
00000080: 12e4 0c3f f66f 8d3f f962 9f3f 63da 5a3f
00000090: 7c45 883e be3d 953f 21f3 663f cee7 9a3f
000000a0: ac54 b03f 8c51 9a3f 9b7a ac3e 5f86 083f
000000b0: 9ae5 a33f ae73 5f3f 206d 043f e0c8 703f
000000c0: b271 bf3e da74 de3e dc0e 7f3f 2321 be3f
000000d0: 0ccb 053f 1f02 cc3f 805c 9d3f b24d 0f3f
000000e0: 1b79 853f bb93 cd3d 72a7 5f3f 4bde 073f
000000f0: b76f 9d3f aa05 143f 05bd b63d fbe6 bf3f
00000100: 79f5 01bb 61b7 2abd 36e5 5a3f 792b be3f
00000110: 0d12 2d3f 6a19 a73f dc66 393f a880 1b3e
00000120: 8df5 863f ca7e 603f eb9d 223f 7f10 823f
00000130: 7d3f be3e 1dc0 2b3f ebbf 1e3f ff9d b73f
00000140: de46 673f 98c8 f53f 5c2c 743f 4568 bf3e
00000150: e161 823f dba8 a93f b4e8 a03f d2fe a83f
00000160: d080 553e 3bd1 913f be2e fd3e df82 a63f
00000170: 02bb 8f3f fd59 123f 8860 a63f 4e84 cd3f
00000180: 7982 7e3f bc22 643f 955e c03f 450f 923e
00000190: f528 643f f726 973f 3b3c c43e a524 9f3f
000001a0: c634 703f 5b27 973e 5add 943f e64a c23f
000001b0: 6b52 a03d 70f1 413f 81d0 1d3f 3970 873f
000001c0: 01d3 d23d cb66 8b3f 88df 503f ba87 b33f
000001d0: 057d eb3f 02db 6a3f 57a5 7d3f ea8a 633f
000001e0: 65cb 913d c4e5 4e3f c1b0 d43e 6384 873f
000001f0: 6f88 433f 93b2 ef3d 7e42 4c3f f4d0 cb3e
00000200: fc50 513f 24c9 ed3e 496d 313f f752 ea3c
00000210: 2607 8b3c 92fe a03e 4d24 383f d7c3 cb3e
00000220: 7f93 193f 624b 313f ec3f 203f 0e5f 9a3e
00000230: e619 8e3f 9d7e 813f 07b4 fb3e 6d56 813f
00000240: a783 873e 2210 a13e 9363 acbc 15e4 463f
00000250: 955a a03f 0acd 103c 876f a43e 45ec 813f
00000260: c2c9 573e ea42 463f 5f8f ecbc 7702 ed3e
00000270: 44f1 a23f 982c a93f 1c19 1a3f b94d 8c3f
00000280: e7fa 9f3e 06cf b73e 6e22 833f 5ba0 f53e
00000290: a7ef 0d3e 55a1 343d c061 093f 028f 873f
000002a0: 5263 763f c013 943f ea53 a93f ad77 a33f
000002b0: fd07 a13f 93f4 aabc 54b7 8d3e dfc9 913f
000002c0: cbba c03d 74a2 793f 9ec1 793f 240d 3f3f
000002d0: 9918 b03e 8c32 573f e560 ed3d e573 903c
000002e0: 37dc 8d3f 8382 053f 07f0 313f bed0 383f
000002f0: 9774 533d 1f05 223f e07e a83f 2d80 473f
00000300: efba cc3e 2edf a43f 0638 f23d 2864 733f
00000310: f00d 323f b41d 063f d109 173f ab5e e63e
00000320: 4ccf fb3f b5a3 3f3f b161 353f 059f c63e
00000330: 6311 443f f751 c73f 746a 0a3f 7f90 a83e
00000340: 06c3 883f 29a6 b43f b158 c73f cd14 573f
00000350: 039c 553c ce0c 913f 2616 e73e a161 243f
00000360: f9e7 1c3f 5885 3f3f 9935 9f3f 266b 303f
00000370: cfb1 de3e 6202 4f3f b13e 533f d794 0e3f
00000380: 8482 943f 1034 473f b693 053f 2a12 9d3e
00000390: 4a39 533d 6764 9d3f 2f21 933f 7ac2 e03a
000003a0: 2b89 193f 0fc2 383f eb1d 453f 9961 973e
000003b0: 7070 143f 0757 ce3e 31eb 173f f439 a73f
000003c0: f486 843e 25f6 5b3f 70fe 2b3f 85fe 803e
000003d0: db6c f73e a58c bf3f 247c a33f 1929 473f
000003e0: 7288 043e e270 e83e 9df1 e83d 82a7 a5bc
000003f0: ca08 483f 9611 353f 58f6 c63f 8a22 8d3f

bias f4 [300]
-0.111628816 0.4676935 0.19439279 -0.4832726 -0.2729257 -0.03942523 0.07505094 0.14326696
0.26711476 0.5904471 0.10331221 0.41875675 0.32195225 -0.2723699 -0.07834176 0.050729815
-0.11775685 -0.38860255 0.22685589 1.095816 0.5555539 0.90165883 -0.5143515 -0.5041534
-0.5577842 0.4394359 0.44538397 1.3990214 -0.38631895 0.89848953 -0.30650795 -0.26180026
-0.107499816 -0.43194297 0.0059018442 0.080927484 -0.3516946 -0.10480946 -0.04167257 0.49875456
-0.08574749 -0.15744318 0.4436999 0.6235028 0.6090883 -0.25517106 0.31637672 0.0928244
-0.28342706 0.21094982 0.59659845 0.15790914 0.020969937 0.7093831 0.8129509 0.5762608
-0.037959956 -0.18763287 0.40173137 -0.108089 0.7652927 0.36853346 0.3644078 -0.31179506
0.61769503 0.63152236 -0.96078825 0.3566287 0.21857247 0.5782556 -0.048879936 0.111495666
-0.48628217 0.21245144 0.091577165 -0.26315174 0.014948735 -0.11575505 -0.31304935 -0.61010945
-0.33415702 0.7389254 -0.5850824 0.17238943 -0.088342816 -0.28264904 0.46703207 0.39968
0.11489113 0.5109359 0.28656888 -0.27340838 -0.49339852 1.067066 0.654035 -0.50981665
-0.50314885 0.14617644 0.730936 -0.03599702 0.0034758262 0.16639566 -0.5864083 -0.39134878
-0.6530342 0.5823886 -0.8996711 0.3652247 0.31671888 0.10668389 0.2637857 -0.15979083
0.95038086 -0.05175526 -0.07333217 0.7074746 0.73471284 -0.06683809 -0.2945028 -0.49903804
0.059315246 -0.4080964 0.77926016 0.43164182 0.37921953 -0.0021475025 -0.3850382 -0.08537444
0.16110657 -0.3565105 0.22537382 0.5470236 -0.25904405 -0.4821382 -0.22895074 -0.069343574
-0.29881904 -0.12916413 0.33437112 0.055026658 -0.25427365 -0.15536916 0.32175118 0.014134569
0.16107598 0.5292366 1.0505139 -0.71569484 -0.53011256 0.34344468 0.58218634 -0.15587324
-0.30437902 0.9109399 0.23568879 -0.3129777 -0.6873502 0.27701315 -0.05907584 -0.5580825
0.77896726 -0.02190373 -0.19028889 -0.5555878 -0.48021144 -0.266894 0.24301675 0.17863782
-0.0514435 -0.34076092 0.48158833 -0.36787802 0.6319708 -0.44630235 -0.33328205 0.5154118
0.11757082 0.25240004 -0.05196444 -0.30450055 -0.24656588 0.4579723 0.050246194 0.7602244
-0.42283562 -0.5667008 -0.36797264 -0.38871592 -0.030525979 0.36303455 -0.5815679 0.16838592
-0.15868375 -0.16593878 -0.20497333 -0.2525397 0.33561486 -0.3116449 -0.13540113 0.27657384
0.7722719 0.19928397 -0.13392496 0.006387435 0.38069656 -0.5531154 -0.09096218 -0.13502057
0.30562624 0.05401188 -0.03541557 -0.3218659 -0.0088524865 0.2561612 -0.30947343 0.21680109
1.0150187 0.1432407 0.7570218 -0.2241217 0.29507276 0.23539087 -0.094993055 -0.30332404
-0.36015108 -0.06787007 0.05951879 0.29151785 -0.10586552 0.17361769 0.1341409 0.15053317
0.0061247977 -0.38298076 0.2718995 -0.21954837 0.19339214 -0.40619296 -0.08849665 0.36338788
0.9008814 -0.021464765 0.25873008 0.027116207 -0.28697994 -0.44910863 0.56707627 -0.6416716
-0.11379755 0.42146468 0.4962967 -0.25383684 -0.31565452 0.1167985 0.15117837 0.20739068
00000000: a69d e4bd 8675 ef3e e70e 473e 826f f7be
00000010: ebbc 8bbe 5a7c 21bd 4fb4 993d 93b4 123e
00000020: 44c3 883e 8b27 173f 5a95 d33d 4967 d63e
00000030: edd6 a43e 1174 8bbe a571 a0bd 11ca 4f3d
00000040: 812a f1bd eaf6 c6be e94c 683e b343 8c3f
00000050: c838 0e3f 1dd3 663f 8aac 03bf 3210 01bf
00000060: f2ca 0ebf befd e03e 5e09 e43e 2213 b33f
00000070: 99cb c5be 6903 663f 9cee 9cbe af0a 86be
00000080: dd28 dcbd a127 ddbe 4264 c13b 4fbd a53d
00000090: 5111 b4be 58a6 d6bd dbb0 2abd c25c ff3e
000000a0: 619c afbd c938 21be a22c e33e e19d 1f3f
000000b0: 36ed 1b3f c8a5 82be 21fc a13e b81a be3d
000000c0: 5a1d 91be 3b03 583e adba 183f efb2 213e
000000d0: 25c9 ab3c 219a 353f 8d1d 503f d485 133f
000000e0: e67b 1bbd d522 40be bcaf cd3e c45d ddbd
000000f0: 39ea 433f 6bb0 bc3e a993 ba3e 9aa3 9fbe
00000100: 4321 1e3f 73ab 213f 38f6 75bf 0998 b63e
00000110: 76d1 5f3e 8f08 143f 5436 48bd d757 e43d
00000120: faf9 f8be df8c 593e cf8c bb3d d3bb 86be
00000130: 8aeb 743c fc10 edbd 0148 a0be 2230 1cbf
00000140: a116 abbe 372a 3d3f f6c7 15bf db86 303e
00000150: 14ed b4bd 60b7 90be d41e ef3e dba2 cc3e
00000160: 0a4c eb3d b2cc 023f 28b9 923e 2ffc 8bbe
00000170: bb9e fcbe 9e95 883f d66e 273f 5883 02bf
00000180: 5dce 00bf 47af 153e 9f1e 3b3f 9c71 13bd
00000190: b0ca 633b a063 2a3e db1e 16bf de5e c8be
000001a0: 402d 27bf 6b17 153f d850 66bf bbfe ba3e
000001b0: fa28 a23e 157d da3d eb0e 873e 35a0 23be
000001c0: 294c 733f 53fd 53bd 2d2f 96bd 0e1d 353f
000001d0: 2416 3c3f 69e2 88bd 12c9 96be ea81 ffbe
000001e0: 8bf4 723d 03f2 d0be 987d 473f 2800 dd3e
000001f0: 1029 c23e 1dbd 0cbb ba23 c5be cbd8 aebd
00000200: 1ff9 243e 8b88 b6be 65c8 663e bd09 0c3f
00000210: 6ca1 84be d1da f6be 1072 6abe 0104 8ebd
00000220: cffe 98be 9a43 04be b132 ab3e a263 613d
00000230: 2830 82be 1819 1fbe 92bc a43e ae94 673c
00000240: 1af1 243e 0d7c 073f 3d77 863f c737 37bf
00000250: 75b5 07bf fbd7 af3e 2a0a 153f 3c9d 1fbe
00000260: 91d7 9bbe 5b33 693f 6758 713e 9d3e a0be
00000270: 2ff6 2fbf abd4 8d3e 82f9 71bd 7fde 0ebf
00000280: 666a 473f 746f b3bc 17db 42be 013b 0ebf
00000290: 46de f5be 55a6 88be 62d9 783e d5ec 363e
000002a0: 6bb6 52bd 3778 aebe bf92 f63e 825a bcbe
000002b0: d7c8 213f be81 e4be f2a3 aabe 07f2 033f
000002c0: f8c8 f03d 943a 813e aad8 54bd 7fe7 9bbe
000002d0: c47b 7cbe 587b ea3e f4ce 4d3d 119e 423f
000002e0: e97d d8be 4e13 11bf e966 bcbe c605 c7be
000002f0: 9e11 fabc aadf b93e a2e1 14bf 5c6d 2c3e
00000300: fe7d 22be dbeb 29be 87e4 51be e24c 81be
00000310: b6d5 ab3e ec8f 9fbe 98a6 0abe 169b 8d3e
00000320: 9cb3 453f 1911 4c3e a023 09be b04d d13b
00000330: a9ea c23e f998 0dbf 614a babd d542 0abe
00000340: 0b7b 9c3e 903b 5d3d eb0f 11bd 9bcb a4be
00000350: 050a 11bc 9027 833e 4d73 9ebe 1b01 5e3e
00000360: 22ec 813f b1ad 123e 2ecc 413f 2980 65be
00000370: c713 973e 4e0a 713e b88b c2bd 4a4d 9bbe
00000380: b965 b8be 77ff 8abd fac9 733d d441 953e
00000390: 06d0 d8bd d6c8 313e 3b5c 093e 5e25 1a3e
000003a0: 87b2 c83b 0e16 c4be 6936 8b3e 4ad1 60be
000003b0: 9708 463e 86f8 cfbe bb3d b5bd fa0d ba3e
000003c0: 2aa0 663f e0d6 afbc 4578 843e cf22 de3c
000003d0: 09ef 92be 91f1 e5be e92b 113f 9744 24bf
000003e0: b10e e9bd 38ca d73e 9a1a fe3e e7f6 81be
000003f0: 789d a1be 0d34 ef3d 81ce 1a3e 395e 543e
